Model
Model: "sequential"
________________________________________________________________________________
Layer (type)                        Output Shape                    Param #     
================================================================================
densenet169 (Model)                 (None, 1, 1, 1664)              12642880    
________________________________________________________________________________
flatten (Flatten)                   (None, 1664)                    0           
________________________________________________________________________________
dense_2 (Dense)                     (None, 100)                     166500      
________________________________________________________________________________
dropout (Dropout)                   (None, 100)                     0           
________________________________________________________________________________
dense_1 (Dense)                     (None, 100)                     10100       
________________________________________________________________________________
dense (Dense)                       (None, 7)                       707         
================================================================================
Total params: 12,820,187
Trainable params: 177,307
Non-trainable params: 12,642,880
________________________________________________________________________________


