Model
Model: "sequential"
________________________________________________________________________________
Layer (type)                        Output Shape                    Param #     
================================================================================
vgg16 (Model)                       (None, 1, 1, 512)               14714688    
________________________________________________________________________________
flatten (Flatten)                   (None, 512)                     0           
________________________________________________________________________________
dense_2 (Dense)                     (None, 100)                     51300       
________________________________________________________________________________
dropout (Dropout)                   (None, 100)                     0           
________________________________________________________________________________
dense_1 (Dense)                     (None, 100)                     10100       
________________________________________________________________________________
dense (Dense)                       (None, 7)                       707         
================================================================================
Total params: 14,776,795
Trainable params: 62,107
Non-trainable params: 14,714,688
________________________________________________________________________________


