Model
Model: "sequential"
________________________________________________________________________________
Layer (type)                        Output Shape                    Param #     
================================================================================
resnet50 (Model)                    (None, 2, 2, 2048)              23587712    
________________________________________________________________________________
flatten (Flatten)                   (None, 8192)                    0           
________________________________________________________________________________
dense_2 (Dense)                     (None, 100)                     819300      
________________________________________________________________________________
dropout (Dropout)                   (None, 100)                     0           
________________________________________________________________________________
dense_1 (Dense)                     (None, 100)                     10100       
________________________________________________________________________________
dense (Dense)                       (None, 7)                       707         
================================================================================
Total params: 24,417,819
Trainable params: 830,107
Non-trainable params: 23,587,712
________________________________________________________________________________


